…
2023-08-19 09:58:53,833 INFO: Dataset [PairedImageDataset] - SET14 is built.
2023-08-19 09:58:53,833 INFO: Training statistics:
	Number of train images: 32
	Dataset enlarge ratio: 100
	Batch size per gpu: 16
	World size (gpu number): 1
	Require iter number per epoch: 200
	Total epochs: 50; iters: 10000.
2023-08-19 09:58:53,833 INFO: Dataset [PairedImageDataset] - Set5 is built.
2023-08-19 09:58:53,833 INFO: Number of val images/folders in Set5: 5
2023-08-19 09:58:54,052 INFO: Network [RRDBNet] is created.
2023-08-19 09:58:55,288 INFO: Network: RRDBNet, with parameters: 17,346,707
2023-08-19 09:58:55,288 INFO: RRDBNet(
  (conv_first): Conv2d(3, 64, kernel_size=(3, 3), stride=(1, 1), padding=(1, 1))
  (body): Sequential(
    (0): RRDB(
      (rdb1): ResidualDenseBlock(
        (conv1): Conv2d(64, 36, kernel_size=(3, 3), stride=(1, 1), padding=(1, 1))
        (conv2): Conv2d(100, 36, kernel_size=(3, 3), stride=(1, 1), padding=(1, 1))
        (conv3): Conv2d(136, 36, kernel_size=(3, 3), stride=(1, 1), padding=(1, 1))
        (conv4): Conv2d(172, 36, kernel_size=(3, 3), stride=(1, 1), padding=(1, 1))
        (conv5): Conv2d(208, 64, kernel_size=(3, 3), stride=(1, 1), padding=(1, 1))
        (lrelu): LeakyReLU(negative_slope=0.2, inplace=True)
      )
      (rdb2): ResidualDenseBlock(
        (conv1): Conv2d(64, 36, kernel_size=(3, 3), stride=(1, 1), padding=(1, 1))
        (conv2): Conv2d(100, 36, kernel_size=(3, 3), stride=(1, 1), padding=(1, 1))
        (conv3): Conv2d(136, 36, kernel_size=(3, 3), stride=(1, 1), padding=(1, 1))
        (conv4): Conv2d(172, 36, kernel_size=(3, 3), stride=(1, 1), padding=(1, 1))
        (conv5): Conv2d(208, 64, kernel_size=(3, 3), stride=(1, 1), padding=(1, 1))
        (lrelu): LeakyReLU(negative_slope=0.2, inplace=True)
      )
      (rdb3): ResidualDenseBlock(
        (conv1): Conv2d(64, 36, kernel_size=(3, 3), stride=(1, 1), padding=(1, 1))
        (conv2): Conv2d(100, 36, kernel_size=(3, 3), stride=(1, 1), padding=(1, 1))
        (conv3): Conv2d(136, 36, kernel_size=(3, 3), stride=(1, 1), padding=(1, 1))
        (conv4): Conv2d(172, 36, kernel_size=(3, 3), stride=(1, 1), padding=(1, 1))
        (conv5): Conv2d(208, 64, kernel_size=(3, 3), stride=(1, 1), padding=(1, 1))
        (lrelu): LeakyReLU(negative_slope=0.2, inplace=True)
      )
    )
    (1): RRDB(
      (rdb1): ResidualDenseBlock(
        (conv1): Conv2d(64, 36, kernel_size=(3, 3), stride=(1, 1), padding=(1, 1))
        (conv2): Conv2d(100, 36, kernel_size=(3, 3), stride=(1, 1), padding=(1, 1))
        (conv3): Conv2d(136, 36, kernel_size=(3, 3), stride=(1, 1), padding=(1, 1))
        (conv4): Conv2d(172, 36, kernel_size=(3, 3), stride=(1, 1), padding=(1, 1))
        (conv5): Conv2d(208, 64, kernel_size=(3, 3), stride=(1, 1), padding=(1, 1))
        (lrelu): LeakyReLU(negative_slope=0.2, inplace=True)
      )
      (rdb2): ResidualDenseBlock(
        (conv1): Conv2d(64, 36, kernel_size=(3, 3), stride=(1, 1), padding=(1, 1))
        (conv2): Conv2d(100, 36, kernel_size=(3, 3), stride=(1, 1), padding=(1, 1))
        (conv3): Conv2d(136, 36, kernel_size=(3, 3), stride=(1, 1), padding=(1, 1))
        (conv4): Conv2d(172, 36, kernel_size=(3, 3), stride=(1, 1), padding=(1, 1))
        (conv5): Conv2d(208, 64, kernel_size=(3, 3), stride=(1, 1), padding=(1, 1))
        (lrelu): LeakyReLU(negative_slope=0.2, inplace=True)
      )
      (rdb3): ResidualDenseBlock(
        (conv1): Conv2d(64, 36, kernel_size=(3, 3), stride=(1, 1), padding=(1, 1))
        (conv2): Conv2d(100, 36, kernel_size=(3, 3), stride=(1, 1), padding=(1, 1))
        (conv3): Conv2d(136, 36, kernel_size=(3, 3), stride=(1, 1), padding=(1, 1))
        (conv4): Conv2d(172, 36, kernel_size=(3, 3), stride=(1, 1), padding=(1, 1))
        (conv5): Conv2d(208, 64, kernel_size=(3, 3), stride=(1, 1), padding=(1, 1))
        (lrelu): LeakyReLU(negative_slope=0.2, inplace=True)
      )
    )
    (2): RRDB(
      (rdb1): ResidualDenseBlock(
        (conv1): Conv2d(64, 36, kernel_size=(3, 3), stride=(1, 1), padding=(1, 1))
        (conv2): Conv2d(100, 36, kernel_size=(3, 3), stride=(1, 1), padding=(1, 1))
        (conv3): Conv2d(136, 36, kernel_size=(3, 3), stride=(1, 1), padding=(1, 1))
        (conv4): Conv2d(172, 36, kernel_size=(3, 3), stride=(1, 1), padding=(1, 1))
        (conv5): Conv2d(208, 64, kernel_size=(3, 3), stride=(1, 1), padding=(1, 1))
        (lrelu): LeakyReLU(negative_slope=0.2, inplace=True)
      )
      (rdb2): ResidualDenseBlock(
        (conv1): Conv2d(64, 36, kernel_size=(3, 3), stride=(1, 1), padding=(1, 1))
        (conv2): Conv2d(100, 36, kernel_size=(3, 3), stride=(1, 1), padding=(1, 1))
        (conv3): Conv2d(136, 36, kernel_size=(3, 3), stride=(1, 1), padding=(1, 1))
        (conv4): Conv2d(172, 36, kernel_size=(3, 3), stride=(1, 1), padding=(1, 1))
        (conv5): Conv2d(208, 64, kernel_size=(3, 3), stride=(1, 1), padding=(1, 1))
        (lrelu): LeakyReLU(negative_slope=0.2, inplace=True)
      )
      (rdb3): ResidualDenseBlock(
        (conv1): Conv2d(64, 36, kernel_size=(3, 3), stride=(1, 1), padding=(1, 1))
        (conv2): Conv2d(100, 36, kernel_size=(3, 3), stride=(1, 1), padding=(1, 1))
        (conv3): Conv2d(136, 36, kernel_size=(3, 3), stride=(1, 1), padding=(1, 1))
        (conv4): Conv2d(172, 36, kernel_size=(3, 3), stride=(1, 1), padding=(1, 1))
        (conv5): Conv2d(208, 64, kernel_size=(3, 3), stride=(1, 1), padding=(1, 1))
        (lrelu): LeakyReLU(negative_slope=0.2, inplace=True)
      )
    )
    (3): RRDB(
      (rdb1): ResidualDenseBlock(
        (conv1): Conv2d(64, 36, kernel_size=(3, 3), stride=(1, 1), padding=(1, 1))
        (conv2): Conv2d(100, 36, kernel_size=(3, 3), stride=(1, 1), padding=(1, 1))
        (conv3): Conv2d(136, 36, kernel_size=(3, 3), stride=(1, 1), padding=(1, 1))
        (conv4): Conv2d(172, 36, kernel_size=(3, 3), stride=(1, 1), padding=(1, 1))
        (conv5): Conv2d(208, 64, kernel_size=(3, 3), stride=(1, 1), padding=(1, 1))
        (lrelu): LeakyReLU(negative_slope=0.2, inplace=True)
      )
      (rdb2): ResidualDenseBlock(
        (conv1): Conv2d(64, 36, kernel_size=(3, 3), stride=(1, 1), padding=(1, 1))
        (conv2): Conv2d(100, 36, kernel_size=(3, 3), stride=(1, 1), padding=(1, 1))
        (conv3): Conv2d(136, 36, kernel_size=(3, 3), stride=(1, 1), padding=(1, 1))
        (conv4): Conv2d(172, 36, kernel_size=(3, 3), stride=(1, 1), padding=(1, 1))
        (conv5): Conv2d(208, 64, kernel_size=(3, 3), stride=(1, 1), padding=(1, 1))
        (lrelu): LeakyReLU(negative_slope=0.2, inplace=True)
      )
      (rdb3): ResidualDenseBlock(
        (conv1): Conv2d(64, 36, kernel_size=(3, 3), stride=(1, 1), padding=(1, 1))
        (conv2): Conv2d(100, 36, kernel_size=(3, 3), stride=(1, 1), padding=(1, 1))
        (conv3): Conv2d(136, 36, kernel_size=(3, 3), stride=(1, 1), padding=(1, 1))
        (conv4): Conv2d(172, 36, kernel_size=(3, 3), stride=(1, 1), padding=(1, 1))
        (conv5): Conv2d(208, 64, kernel_size=(3, 3), stride=(1, 1), padding=(1, 1))
        (lrelu): LeakyReLU(negative_slope=0.2, inplace=True)
      )
    )
    (4): RRDB(
      (rdb1): ResidualDenseBlock(
        (conv1): Conv2d(64, 36, kernel_size=(3, 3), stride=(1, 1), padding=(1, 1))
        (conv2): Conv2d(100, 36, kernel_size=(3, 3), stride=(1, 1), padding=(1, 1))
        (conv3): Conv2d(136, 36, kernel_size=(3, 3), stride=(1, 1), padding=(1, 1))
        (conv4): Conv2d(172, 36, kernel_size=(3, 3), stride=(1, 1), padding=(1, 1))
        (conv5): Conv2d(208, 64, kernel_size=(3, 3), stride=(1, 1), padding=(1, 1))
        (lrelu): LeakyReLU(negative_slope=0.2, inplace=True)
      )
      (rdb2): ResidualDenseBlock(
        (conv1): Conv2d(64, 36, kernel_size=(3, 3), stride=(1, 1), padding=(1, 1))
        (conv2): Conv2d(100, 36, kernel_size=(3, 3), stride=(1, 1), padding=(1, 1))
        (conv3): Conv2d(136, 36, kernel_size=(3, 3), stride=(1, 1), padding=(1, 1))
        (conv4): Conv2d(172, 36, kernel_size=(3, 3), stride=(1, 1), padding=(1, 1))
        (conv5): Conv2d(208, 64, kernel_size=(3, 3), stride=(1, 1), padding=(1, 1))
        (lrelu): LeakyReLU(negative_slope=0.2, inplace=True)
      )
      (rdb3): ResidualDenseBlock(
        (conv1): Conv2d(64, 36, kernel_size=(3, 3), stride=(1, 1), padding=(1, 1))
        (conv2): Conv2d(100, 36, kernel_size=(3, 3), stride=(1, 1), padding=(1, 1))
        (conv3): Conv2d(136, 36, kernel_size=(3, 3), stride=(1, 1), padding=(1, 1))
        (conv4): Conv2d(172, 36, kernel_size=(3, 3), stride=(1, 1), padding=(1, 1))
        (conv5): Conv2d(208, 64, kernel_size=(3, 3), stride=(1, 1), padding=(1, 1))
        (lrelu): LeakyReLU(negative_slope=0.2, inplace=True)
      )
    )
    (5): RRDB(
      (rdb1): ResidualDenseBlock(
        (conv1): Conv2d(64, 36, kernel_size=(3, 3), stride=(1, 1), padding=(1, 1))
        (conv2): Conv2d(100, 36, kernel_size=(3, 3), stride=(1, 1), padding=(1, 1))
        (conv3): Conv2d(136, 36, kernel_size=(3, 3), stride=(1, 1), padding=(1, 1))
        (conv4): Conv2d(172, 36, kernel_size=(3, 3), stride=(1, 1), padding=(1, 1))
        (conv5): Conv2d(208, 64, kernel_size=(3, 3), stride=(1, 1), padding=(1, 1))
        (lrelu): LeakyReLU(negative_slope=0.2, inplace=True)
      )
      (rdb2): ResidualDenseBlock(
        (conv1): Conv2d(64, 36, kernel_size=(3, 3), stride=(1, 1), padding=(1, 1))
        (conv2): Conv2d(100, 36, kernel_size=(3, 3), stride=(1, 1), padding=(1, 1))
        (conv3): Conv2d(136, 36, kernel_size=(3, 3), stride=(1, 1), padding=(1, 1))
        (conv4): Conv2d(172, 36, kernel_size=(3, 3), stride=(1, 1), padding=(1, 1))
        (conv5): Conv2d(208, 64, kernel_size=(3, 3), stride=(1, 1), padding=(1, 1))
        (lrelu): LeakyReLU(negative_slope=0.2, inplace=True)
      )
      (rdb3): ResidualDenseBlock(
        (conv1): Conv2d(64, 36, kernel_size=(3, 3), stride=(1, 1), padding=(1, 1))
        (conv2): Conv2d(100, 36, kernel_size=(3, 3), stride=(1, 1), padding=(1, 1))
        (conv3): Conv2d(136, 36, kernel_size=(3, 3), stride=(1, 1), padding=(1, 1))
        (conv4): Conv2d(172, 36, kernel_size=(3, 3), stride=(1, 1), padding=(1, 1))
        (conv5): Conv2d(208, 64, kernel_size=(3, 3), stride=(1, 1), padding=(1, 1))
        (lrelu): LeakyReLU(negative_slope=0.2, inplace=True)
      )
    )
    (6): RRDB(
      (rdb1): ResidualDenseBlock(
        (conv1): Conv2d(64, 36, kernel_size=(3, 3), stride=(1, 1), padding=(1, 1))
        (conv2): Conv2d(100, 36, kernel_size=(3, 3), stride=(1, 1), padding=(1, 1))
        (conv3): Conv2d(136, 36, kernel_size=(3, 3), stride=(1, 1), padding=(1, 1))
        (conv4): Conv2d(172, 36, kernel_size=(3, 3), stride=(1, 1), padding=(1, 1))
        (conv5): Conv2d(208, 64, kernel_size=(3, 3), stride=(1, 1), padding=(1, 1))
        (lrelu): LeakyReLU(negative_slope=0.2, inplace=True)
      )
      (rdb2): ResidualDenseBlock(
        (conv1): Conv2d(64, 36, kernel_size=(3, 3), stride=(1, 1), padding=(1, 1))
        (conv2): Conv2d(100, 36, kernel_size=(3, 3), stride=(1, 1), padding=(1, 1))
        (conv3): Conv2d(136, 36, kernel_size=(3, 3), stride=(1, 1), padding=(1, 1))
        (conv4): Conv2d(172, 36, kernel_size=(3, 3), stride=(1, 1), padding=(1, 1))
        (conv5): Conv2d(208, 64, kernel_size=(3, 3), stride=(1, 1), padding=(1, 1))
        (lrelu): LeakyReLU(negative_slope=0.2, inplace=True)
      )
      (rdb3): ResidualDenseBlock(
        (conv1): Conv2d(64, 36, kernel_size=(3, 3), stride=(1, 1), padding=(1, 1))
        (conv2): Conv2d(100, 36, kernel_size=(3, 3), stride=(1, 1), padding=(1, 1))
        (conv3): Conv2d(136, 36, kernel_size=(3, 3), stride=(1, 1), padding=(1, 1))
        (conv4): Conv2d(172, 36, kernel_size=(3, 3), stride=(1, 1), padding=(1, 1))
        (conv5): Conv2d(208, 64, kernel_size=(3, 3), stride=(1, 1), padding=(1, 1))
        (lrelu): LeakyReLU(negative_slope=0.2, inplace=True)
      )
    )
    (7): RRDB(
      (rdb1): ResidualDenseBlock(
        (conv1): Conv2d(64, 36, kernel_size=(3, 3), stride=(1, 1), padding=(1, 1))
        (conv2): Conv2d(100, 36, kernel_size=(3, 3), stride=(1, 1), padding=(1, 1))
        (conv3): Conv2d(136, 36, kernel_size=(3, 3), stride=(1, 1), padding=(1, 1))
        (conv4): Conv2d(172, 36, kernel_size=(3, 3), stride=(1, 1), padding=(1, 1))
        (conv5): Conv2d(208, 64, kernel_size=(3, 3), stride=(1, 1), padding=(1, 1))
        (lrelu): LeakyReLU(negative_slope=0.2, inplace=True)
      )
      (rdb2): ResidualDenseBlock(
        (conv1): Conv2d(64, 36, kernel_size=(3, 3), stride=(1, 1), padding=(1, 1))
        (conv2): Conv2d(100, 36, kernel_size=(3, 3), stride=(1, 1), padding=(1, 1))
        (conv3): Conv2d(136, 36, kernel_size=(3, 3), stride=(1, 1), padding=(1, 1))
        (conv4): Conv2d(172, 36, kernel_size=(3, 3), stride=(1, 1), padding=(1, 1))
        (conv5): Conv2d(208, 64, kernel_size=(3, 3), stride=(1, 1), padding=(1, 1))
        (lrelu): LeakyReLU(negative_slope=0.2, inplace=True)
      )
      (rdb3): ResidualDenseBlock(
        (conv1): Conv2d(64, 36, kernel_size=(3, 3), stride=(1, 1), padding=(1, 1))
        (conv2): Conv2d(100, 36, kernel_size=(3, 3), stride=(1, 1), padding=(1, 1))
        (conv3): Conv2d(136, 36, kernel_size=(3, 3), stride=(1, 1), padding=(1, 1))
        (conv4): Conv2d(172, 36, kernel_size=(3, 3), stride=(1, 1), padding=(1, 1))
        (conv5): Conv2d(208, 64, kernel_size=(3, 3), stride=(1, 1), padding=(1, 1))
        (lrelu): LeakyReLU(negative_slope=0.2, inplace=True)
      )
    )
    (8): RRDB(
      (rdb1): ResidualDenseBlock(
        (conv1): Conv2d(64, 36, kernel_size=(3, 3), stride=(1, 1), padding=(1, 1))
        (conv2): Conv2d(100, 36, kernel_size=(3, 3), stride=(1, 1), padding=(1, 1))
        (conv3): Conv2d(136, 36, kernel_size=(3, 3), stride=(1, 1), padding=(1, 1))
        (conv4): Conv2d(172, 36, kernel_size=(3, 3), stride=(1, 1), padding=(1, 1))
        (conv5): Conv2d(208, 64, kernel_size=(3, 3), stride=(1, 1), padding=(1, 1))
        (lrelu): LeakyReLU(negative_slope=0.2, inplace=True)
      )
      (rdb2): ResidualDenseBlock(
        (conv1): Conv2d(64, 36, kernel_size=(3, 3), stride=(1, 1), padding=(1, 1))
        (conv2): Conv2d(100, 36, kernel_size=(3, 3), stride=(1, 1), padding=(1, 1))
        (conv3): Conv2d(136, 36, kernel_size=(3, 3), stride=(1, 1), padding=(1, 1))
        (conv4): Conv2d(172, 36, kernel_size=(3, 3), stride=(1, 1), padding=(1, 1))
        (conv5): Conv2d(208, 64, kernel_size=(3, 3), stride=(1, 1), padding=(1, 1))
        (lrelu): LeakyReLU(negative_slope=0.2, inplace=True)
      )
      (rdb3): ResidualDenseBlock(
        (conv1): Conv2d(64, 36, kernel_size=(3, 3), stride=(1, 1), padding=(1, 1))
        (conv2): Conv2d(100, 36, kernel_size=(3, 3), stride=(1, 1), padding=(1, 1))
        (conv3): Conv2d(136, 36, kernel_size=(3, 3), stride=(1, 1), padding=(1, 1))
        (conv4): Conv2d(172, 36, kernel_size=(3, 3), stride=(1, 1), padding=(1, 1))
        (conv5): Conv2d(208, 64, kernel_size=(3, 3), stride=(1, 1), padding=(1, 1))
        (lrelu): LeakyReLU(negative_slope=0.2, inplace=True)
      )
    )
    (9): RRDB(
      (rdb1): ResidualDenseBlock(
        (conv1): Conv2d(64, 36, kernel_size=(3, 3), stride=(1, 1), padding=(1, 1))
        (conv2): Conv2d(100, 36, kernel_size=(3, 3), stride=(1, 1), padding=(1, 1))
        (conv3): Conv2d(136, 36, kernel_size=(3, 3), stride=(1, 1), padding=(1, 1))
        (conv4): Conv2d(172, 36, kernel_size=(3, 3), stride=(1, 1), padding=(1, 1))
        (conv5): Conv2d(208, 64, kernel_size=(3, 3), stride=(1, 1), padding=(1, 1))
        (lrelu): LeakyReLU(negative_slope=0.2, inplace=True)
      )
      (rdb2): ResidualDenseBlock(
        (conv1): Conv2d(64, 36, kernel_size=(3, 3), stride=(1, 1), padding=(1, 1))
        (conv2): Conv2d(100, 36, kernel_size=(3, 3), stride=(1, 1), padding=(1, 1))
        (conv3): Conv2d(136, 36, kernel_size=(3, 3), stride=(1, 1), padding=(1, 1))
        (conv4): Conv2d(172, 36, kernel_size=(3, 3), stride=(1, 1), padding=(1, 1))
        (conv5): Conv2d(208, 64, kernel_size=(3, 3), stride=(1, 1), padding=(1, 1))
        (lrelu): LeakyReLU(negative_slope=0.2, inplace=True)
      )
      (rdb3): ResidualDenseBlock(
        (conv1): Conv2d(64, 36, kernel_size=(3, 3), stride=(1, 1), padding=(1, 1))
        (conv2): Conv2d(100, 36, kernel_size=(3, 3), stride=(1, 1), padding=(1, 1))
        (conv3): Conv2d(136, 36, kernel_size=(3, 3), stride=(1, 1), padding=(1, 1))
        (conv4): Conv2d(172, 36, kernel_size=(3, 3), stride=(1, 1), padding=(1, 1))
        (conv5): Conv2d(208, 64, kernel_size=(3, 3), stride=(1, 1), padding=(1, 1))
        (lrelu): LeakyReLU(negative_slope=0.2, inplace=True)
      )
    )
    (10): RRDB(
      (rdb1): ResidualDenseBlock(
        (conv1): Conv2d(64, 36, kernel_size=(3, 3), stride=(1, 1), padding=(1, 1))
        (conv2): Conv2d(100, 36, kernel_size=(3, 3), stride=(1, 1), padding=(1, 1))
        (conv3): Conv2d(136, 36, kernel_size=(3, 3), stride=(1, 1), padding=(1, 1))
        (conv4): Conv2d(172, 36, kernel_size=(3, 3), stride=(1, 1), padding=(1, 1))
        (conv5): Conv2d(208, 64, kernel_size=(3, 3), stride=(1, 1), padding=(1, 1))
        (lrelu): LeakyReLU(negative_slope=0.2, inplace=True)
      )
      (rdb2): ResidualDenseBlock(
        (conv1): Conv2d(64, 36, kernel_size=(3, 3), stride=(1, 1), padding=(1, 1))
        (conv2): Conv2d(100, 36, kernel_size=(3, 3), stride=(1, 1), padding=(1, 1))
        (conv3): Conv2d(136, 36, kernel_size=(3, 3), stride=(1, 1), padding=(1, 1))
        (conv4): Conv2d(172, 36, kernel_size=(3, 3), stride=(1, 1), padding=(1, 1))
        (conv5): Conv2d(208, 64, kernel_size=(3, 3), stride=(1, 1), padding=(1, 1))
        (lrelu): LeakyReLU(negative_slope=0.2, inplace=True)
      )
      (rdb3): ResidualDenseBlock(
        (conv1): Conv2d(64, 36, kernel_size=(3, 3), stride=(1, 1), padding=(1, 1))
        (conv2): Conv2d(100, 36, kernel_size=(3, 3), stride=(1, 1), padding=(1, 1))
        (conv3): Conv2d(136, 36, kernel_size=(3, 3), stride=(1, 1), padding=(1, 1))
        (conv4): Conv2d(172, 36, kernel_size=(3, 3), stride=(1, 1), padding=(1, 1))
        (conv5): Conv2d(208, 64, kernel_size=(3, 3), stride=(1, 1), padding=(1, 1))
        (lrelu): LeakyReLU(negative_slope=0.2, inplace=True)
      )
    )
    (11): RRDB(
      (rdb1): ResidualDenseBlock(
        (conv1): Conv2d(64, 36, kernel_size=(3, 3), stride=(1, 1), padding=(1, 1))
        (conv2): Conv2d(100, 36, kernel_size=(3, 3), stride=(1, 1), padding=(1, 1))
        (conv3): Conv2d(136, 36, kernel_size=(3, 3), stride=(1, 1), padding=(1, 1))
        (conv4): Conv2d(172, 36, kernel_size=(3, 3), stride=(1, 1), padding=(1, 1))
        (conv5): Conv2d(208, 64, kernel_size=(3, 3), stride=(1, 1), padding=(1, 1))
        (lrelu): LeakyReLU(negative_slope=0.2, inplace=True)
      )
      (rdb2): ResidualDenseBlock(
        (conv1): Conv2d(64, 36, kernel_size=(3, 3), stride=(1, 1), padding=(1, 1))
        (conv2): Conv2d(100, 36, kernel_size=(3, 3), stride=(1, 1), padding=(1, 1))
        (conv3): Conv2d(136, 36, kernel_size=(3, 3), stride=(1, 1), padding=(1, 1))
        (conv4): Conv2d(172, 36, kernel_size=(3, 3), stride=(1, 1), padding=(1, 1))
        (conv5): Conv2d(208, 64, kernel_size=(3, 3), stride=(1, 1), padding=(1, 1))
        (lrelu): LeakyReLU(negative_slope=0.2, inplace=True)
      )
      (rdb3): ResidualDenseBlock(
        (conv1): Conv2d(64, 36, kernel_size=(3, 3), stride=(1, 1), padding=(1, 1))
        (conv2): Conv2d(100, 36, kernel_size=(3, 3), stride=(1, 1), padding=(1, 1))
        (conv3): Conv2d(136, 36, kernel_size=(3, 3), stride=(1, 1), padding=(1, 1))
        (conv4): Conv2d(172, 36, kernel_size=(3, 3), stride=(1, 1), padding=(1, 1))
        (conv5): Conv2d(208, 64, kernel_size=(3, 3), stride=(1, 1), padding=(1, 1))
        (lrelu): LeakyReLU(negative_slope=0.2, inplace=True)
      )
    )
    (12): RRDB(
      (rdb1): ResidualDenseBlock(
        (conv1): Conv2d(64, 36, kernel_size=(3, 3), stride=(1, 1), padding=(1, 1))
        (conv2): Conv2d(100, 36, kernel_size=(3, 3), stride=(1, 1), padding=(1, 1))
        (conv3): Conv2d(136, 36, kernel_size=(3, 3), stride=(1, 1), padding=(1, 1))
        (conv4): Conv2d(172, 36, kernel_size=(3, 3), stride=(1, 1), padding=(1, 1))
        (conv5): Conv2d(208, 64, kernel_size=(3, 3), stride=(1, 1), padding=(1, 1))
        (lrelu): LeakyReLU(negative_slope=0.2, inplace=True)
      )
      (rdb2): ResidualDenseBlock(
        (conv1): Conv2d(64, 36, kernel_size=(3, 3), stride=(1, 1), padding=(1, 1))
        (conv2): Conv2d(100, 36, kernel_size=(3, 3), stride=(1, 1), padding=(1, 1))
        (conv3): Conv2d(136, 36, kernel_size=(3, 3), stride=(1, 1), padding=(1, 1))
        (conv4): Conv2d(172, 36, kernel_size=(3, 3), stride=(1, 1), padding=(1, 1))
        (conv5): Conv2d(208, 64, kernel_size=(3, 3), stride=(1, 1), padding=(1, 1))
        (lrelu): LeakyReLU(negative_slope=0.2, inplace=True)
      )
      (rdb3): ResidualDenseBlock(
        (conv1): Conv2d(64, 36, kernel_size=(3, 3), stride=(1, 1), padding=(1, 1))
        (conv2): Conv2d(100, 36, kernel_size=(3, 3), stride=(1, 1), padding=(1, 1))
        (conv3): Conv2d(136, 36, kernel_size=(3, 3), stride=(1, 1), padding=(1, 1))
        (conv4): Conv2d(172, 36, kernel_size=(3, 3), stride=(1, 1), padding=(1, 1))
        (conv5): Conv2d(208, 64, kernel_size=(3, 3), stride=(1, 1), padding=(1, 1))
        (lrelu): LeakyReLU(negative_slope=0.2, inplace=True)
      )
    )
    (13): RRDB(
      (rdb1): ResidualDenseBlock(
        (conv1): Conv2d(64, 36, kernel_size=(3, 3), stride=(1, 1), padding=(1, 1))
        (conv2): Conv2d(100, 36, kernel_size=(3, 3), stride=(1, 1), padding=(1, 1))
        (conv3): Conv2d(136, 36, kernel_size=(3, 3), stride=(1, 1), padding=(1, 1))
        (conv4): Conv2d(172, 36, kernel_size=(3, 3), stride=(1, 1), padding=(1, 1))
        (conv5): Conv2d(208, 64, kernel_size=(3, 3), stride=(1, 1), padding=(1, 1))
        (lrelu): LeakyReLU(negative_slope=0.2, inplace=True)
      )
      (rdb2): ResidualDenseBlock(
        (conv1): Conv2d(64, 36, kernel_size=(3, 3), stride=(1, 1), padding=(1, 1))
        (conv2): Conv2d(100, 36, kernel_size=(3, 3), stride=(1, 1), padding=(1, 1))
        (conv3): Conv2d(136, 36, kernel_size=(3, 3), stride=(1, 1), padding=(1, 1))
        (conv4): Conv2d(172, 36, kernel_size=(3, 3), stride=(1, 1), padding=(1, 1))
        (conv5): Conv2d(208, 64, kernel_size=(3, 3), stride=(1, 1), padding=(1, 1))
        (lrelu): LeakyReLU(negative_slope=0.2, inplace=True)
      )
      (rdb3): ResidualDenseBlock(
        (conv1): Conv2d(64, 36, kernel_size=(3, 3), stride=(1, 1), padding=(1, 1))
        (conv2): Conv2d(100, 36, kernel_size=(3, 3), stride=(1, 1), padding=(1, 1))
        (conv3): Conv2d(136, 36, kernel_size=(3, 3), stride=(1, 1), padding=(1, 1))
        (conv4): Conv2d(172, 36, kernel_size=(3, 3), stride=(1, 1), padding=(1, 1))
        (conv5): Conv2d(208, 64, kernel_size=(3, 3), stride=(1, 1), padding=(1, 1))
        (lrelu): LeakyReLU(negative_slope=0.2, inplace=True)
      )
    )
    (14): RRDB(
      (rdb1): ResidualDenseBlock(
        (conv1): Conv2d(64, 36, kernel_size=(3, 3), stride=(1, 1), padding=(1, 1))
        (conv2): Conv2d(100, 36, kernel_size=(3, 3), stride=(1, 1), padding=(1, 1))
        (conv3): Conv2d(136, 36, kernel_size=(3, 3), stride=(1, 1), padding=(1, 1))
        (conv4): Conv2d(172, 36, kernel_size=(3, 3), stride=(1, 1), padding=(1, 1))
        (conv5): Conv2d(208, 64, kernel_size=(3, 3), stride=(1, 1), padding=(1, 1))
        (lrelu): LeakyReLU(negative_slope=0.2, inplace=True)
      )
      (rdb2): ResidualDenseBlock(
        (conv1): Conv2d(64, 36, kernel_size=(3, 3), stride=(1, 1), padding=(1, 1))
        (conv2): Conv2d(100, 36, kernel_size=(3, 3), stride=(1, 1), padding=(1, 1))
        (conv3): Conv2d(136, 36, kernel_size=(3, 3), stride=(1, 1), padding=(1, 1))
        (conv4): Conv2d(172, 36, kernel_size=(3, 3), stride=(1, 1), padding=(1, 1))
        (conv5): Conv2d(208, 64, kernel_size=(3, 3), stride=(1, 1), padding=(1, 1))
        (lrelu): LeakyReLU(negative_slope=0.2, inplace=True)
      )
      (rdb3): ResidualDenseBlock(
        (conv1): Conv2d(64, 36, kernel_size=(3, 3), stride=(1, 1), padding=(1, 1))
        (conv2): Conv2d(100, 36, kernel_size=(3, 3), stride=(1, 1), padding=(1, 1))
        (conv3): Conv2d(136, 36, kernel_size=(3, 3), stride=(1, 1), padding=(1, 1))
        (conv4): Conv2d(172, 36, kernel_size=(3, 3), stride=(1, 1), padding=(1, 1))
        (conv5): Conv2d(208, 64, kernel_size=(3, 3), stride=(1, 1), padding=(1, 1))
        (lrelu): LeakyReLU(negative_slope=0.2, inplace=True)
      )
    )
    (15): RRDB(
      (rdb1): ResidualDenseBlock(
        (conv1): Conv2d(64, 36, kernel_size=(3, 3), stride=(1, 1), padding=(1, 1))
        (conv2): Conv2d(100, 36, kernel_size=(3, 3), stride=(1, 1), padding=(1, 1))
        (conv3): Conv2d(136, 36, kernel_size=(3, 3), stride=(1, 1), padding=(1, 1))
        (conv4): Conv2d(172, 36, kernel_size=(3, 3), stride=(1, 1), padding=(1, 1))
        (conv5): Conv2d(208, 64, kernel_size=(3, 3), stride=(1, 1), padding=(1, 1))
        (lrelu): LeakyReLU(negative_slope=0.2, inplace=True)
      )
      (rdb2): ResidualDenseBlock(
        (conv1): Conv2d(64, 36, kernel_size=(3, 3), stride=(1, 1), padding=(1, 1))
        (conv2): Conv2d(100, 36, kernel_size=(3, 3), stride=(1, 1), padding=(1, 1))
        (conv3): Conv2d(136, 36, kernel_size=(3, 3), stride=(1, 1), padding=(1, 1))
        (conv4): Conv2d(172, 36, kernel_size=(3, 3), stride=(1, 1), padding=(1, 1))
        (conv5): Conv2d(208, 64, kernel_size=(3, 3), stride=(1, 1), padding=(1, 1))
        (lrelu): LeakyReLU(negative_slope=0.2, inplace=True)
      )
      (rdb3): ResidualDenseBlock(
        (conv1): Conv2d(64, 36, kernel_size=(3, 3), stride=(1, 1), padding=(1, 1))
        (conv2): Conv2d(100, 36, kernel_size=(3, 3), stride=(1, 1), padding=(1, 1))
        (conv3): Conv2d(136, 36, kernel_size=(3, 3), stride=(1, 1), padding=(1, 1))
        (conv4): Conv2d(172, 36, kernel_size=(3, 3), stride=(1, 1), padding=(1, 1))
        (conv5): Conv2d(208, 64, kernel_size=(3, 3), stride=(1, 1), padding=(1, 1))
        (lrelu): LeakyReLU(negative_slope=0.2, inplace=True)
      )
    )
    (16): RRDB(
      (rdb1): ResidualDenseBlock(
        (conv1): Conv2d(64, 36, kernel_size=(3, 3), stride=(1, 1), padding=(1, 1))
        (conv2): Conv2d(100, 36, kernel_size=(3, 3), stride=(1, 1), padding=(1, 1))
        (conv3): Conv2d(136, 36, kernel_size=(3, 3), stride=(1, 1), padding=(1, 1))
        (conv4): Conv2d(172, 36, kernel_size=(3, 3), stride=(1, 1), padding=(1, 1))
        (conv5): Conv2d(208, 64, kernel_size=(3, 3), stride=(1, 1), padding=(1, 1))
        (lrelu): LeakyReLU(negative_slope=0.2, inplace=True)
      )
      (rdb2): ResidualDenseBlock(
        (conv1): Conv2d(64, 36, kernel_size=(3, 3), stride=(1, 1), padding=(1, 1))
        (conv2): Conv2d(100, 36, kernel_size=(3, 3), stride=(1, 1), padding=(1, 1))
        (conv3): Conv2d(136, 36, kernel_size=(3, 3), stride=(1, 1), padding=(1, 1))
        (conv4): Conv2d(172, 36, kernel_size=(3, 3), stride=(1, 1), padding=(1, 1))
        (conv5): Conv2d(208, 64, kernel_size=(3, 3), stride=(1, 1), padding=(1, 1))
        (lrelu): LeakyReLU(negative_slope=0.2, inplace=True)
      )
      (rdb3): ResidualDenseBlock(
        (conv1): Conv2d(64, 36, kernel_size=(3, 3), stride=(1, 1), padding=(1, 1))
        (conv2): Conv2d(100, 36, kernel_size=(3, 3), stride=(1, 1), padding=(1, 1))
        (conv3): Conv2d(136, 36, kernel_size=(3, 3), stride=(1, 1), padding=(1, 1))
        (conv4): Conv2d(172, 36, kernel_size=(3, 3), stride=(1, 1), padding=(1, 1))
        (conv5): Conv2d(208, 64, kernel_size=(3, 3), stride=(1, 1), padding=(1, 1))
        (lrelu): LeakyReLU(negative_slope=0.2, inplace=True)
      )
    )
    (17): RRDB(
      (rdb1): ResidualDenseBlock(
        (conv1): Conv2d(64, 36, kernel_size=(3, 3), stride=(1, 1), padding=(1, 1))
        (conv2): Conv2d(100, 36, kernel_size=(3, 3), stride=(1, 1), padding=(1, 1))
        (conv3): Conv2d(136, 36, kernel_size=(3, 3), stride=(1, 1), padding=(1, 1))
        (conv4): Conv2d(172, 36, kernel_size=(3, 3), stride=(1, 1), padding=(1, 1))
        (conv5): Conv2d(208, 64, kernel_size=(3, 3), stride=(1, 1), padding=(1, 1))
        (lrelu): LeakyReLU(negative_slope=0.2, inplace=True)
      )
      (rdb2): ResidualDenseBlock(
        (conv1): Conv2d(64, 36, kernel_size=(3, 3), stride=(1, 1), padding=(1, 1))
        (conv2): Conv2d(100, 36, kernel_size=(3, 3), stride=(1, 1), padding=(1, 1))
        (conv3): Conv2d(136, 36, kernel_size=(3, 3), stride=(1, 1), padding=(1, 1))
        (conv4): Conv2d(172, 36, kernel_size=(3, 3), stride=(1, 1), padding=(1, 1))
        (conv5): Conv2d(208, 64, kernel_size=(3, 3), stride=(1, 1), padding=(1, 1))
        (lrelu): LeakyReLU(negative_slope=0.2, inplace=True)
      )
      (rdb3): ResidualDenseBlock(
        (conv1): Conv2d(64, 36, kernel_size=(3, 3), stride=(1, 1), padding=(1, 1))
        (conv2): Conv2d(100, 36, kernel_size=(3, 3), stride=(1, 1), padding=(1, 1))
        (conv3): Conv2d(136, 36, kernel_size=(3, 3), stride=(1, 1), padding=(1, 1))
        (conv4): Conv2d(172, 36, kernel_size=(3, 3), stride=(1, 1), padding=(1, 1))
        (conv5): Conv2d(208, 64, kernel_size=(3, 3), stride=(1, 1), padding=(1, 1))
        (lrelu): LeakyReLU(negative_slope=0.2, inplace=True)
      )
    )
    (18): RRDB(
      (rdb1): ResidualDenseBlock(
        (conv1): Conv2d(64, 36, kernel_size=(3, 3), stride=(1, 1), padding=(1, 1))
        (conv2): Conv2d(100, 36, kernel_size=(3, 3), stride=(1, 1), padding=(1, 1))
        (conv3): Conv2d(136, 36, kernel_size=(3, 3), stride=(1, 1), padding=(1, 1))
        (conv4): Conv2d(172, 36, kernel_size=(3, 3), stride=(1, 1), padding=(1, 1))
        (conv5): Conv2d(208, 64, kernel_size=(3, 3), stride=(1, 1), padding=(1, 1))
        (lrelu): LeakyReLU(negative_slope=0.2, inplace=True)
      )
      (rdb2): ResidualDenseBlock(
        (conv1): Conv2d(64, 36, kernel_size=(3, 3), stride=(1, 1), padding=(1, 1))
        (conv2): Conv2d(100, 36, kernel_size=(3, 3), stride=(1, 1), padding=(1, 1))
        (conv3): Conv2d(136, 36, kernel_size=(3, 3), stride=(1, 1), padding=(1, 1))
        (conv4): Conv2d(172, 36, kernel_size=(3, 3), stride=(1, 1), padding=(1, 1))
        (conv5): Conv2d(208, 64, kernel_size=(3, 3), stride=(1, 1), padding=(1, 1))
        (lrelu): LeakyReLU(negative_slope=0.2, inplace=True)
      )
      (rdb3): ResidualDenseBlock(
        (conv1): Conv2d(64, 36, kernel_size=(3, 3), stride=(1, 1), padding=(1, 1))
        (conv2): Conv2d(100, 36, kernel_size=(3, 3), stride=(1, 1), padding=(1, 1))
        (conv3): Conv2d(136, 36, kernel_size=(3, 3), stride=(1, 1), padding=(1, 1))
        (conv4): Conv2d(172, 36, kernel_size=(3, 3), stride=(1, 1), padding=(1, 1))
        (conv5): Conv2d(208, 64, kernel_size=(3, 3), stride=(1, 1), padding=(1, 1))
        (lrelu): LeakyReLU(negative_slope=0.2, inplace=True)
      )
    )
    (19): RRDB(
      (rdb1): ResidualDenseBlock(
        (conv1): Conv2d(64, 36, kernel_size=(3, 3), stride=(1, 1), padding=(1, 1))
        (conv2): Conv2d(100, 36, kernel_size=(3, 3), stride=(1, 1), padding=(1, 1))
        (conv3): Conv2d(136, 36, kernel_size=(3, 3), stride=(1, 1), padding=(1, 1))
        (conv4): Conv2d(172, 36, kernel_size=(3, 3), stride=(1, 1), padding=(1, 1))
        (conv5): Conv2d(208, 64, kernel_size=(3, 3), stride=(1, 1), padding=(1, 1))
        (lrelu): LeakyReLU(negative_slope=0.2, inplace=True)
      )
      (rdb2): ResidualDenseBlock(
        (conv1): Conv2d(64, 36, kernel_size=(3, 3), stride=(1, 1), padding=(1, 1))
        (conv2): Conv2d(100, 36, kernel_size=(3, 3), stride=(1, 1), padding=(1, 1))
        (conv3): Conv2d(136, 36, kernel_size=(3, 3), stride=(1, 1), padding=(1, 1))
        (conv4): Conv2d(172, 36, kernel_size=(3, 3), stride=(1, 1), padding=(1, 1))
        (conv5): Conv2d(208, 64, kernel_size=(3, 3), stride=(1, 1), padding=(1, 1))
        (lrelu): LeakyReLU(negative_slope=0.2, inplace=True)
      )
      (rdb3): ResidualDenseBlock(
        (conv1): Conv2d(64, 36, kernel_size=(3, 3), stride=(1, 1), padding=(1, 1))
        (conv2): Conv2d(100, 36, kernel_size=(3, 3), stride=(1, 1), padding=(1, 1))
        (conv3): Conv2d(136, 36, kernel_size=(3, 3), stride=(1, 1), padding=(1, 1))
        (conv4): Conv2d(172, 36, kernel_size=(3, 3), stride=(1, 1), padding=(1, 1))
        (conv5): Conv2d(208, 64, kernel_size=(3, 3), stride=(1, 1), padding=(1, 1))
        (lrelu): LeakyReLU(negative_slope=0.2, inplace=True)
      )
    )
    (20): RRDB(
      (rdb1): ResidualDenseBlock(
        (conv1): Conv2d(64, 36, kernel_size=(3, 3), stride=(1, 1), padding=(1, 1))
        (conv2): Conv2d(100, 36, kernel_size=(3, 3), stride=(1, 1), padding=(1, 1))
        (conv3): Conv2d(136, 36, kernel_size=(3, 3), stride=(1, 1), padding=(1, 1))
        (conv4): Conv2d(172, 36, kernel_size=(3, 3), stride=(1, 1), padding=(1, 1))
        (conv5): Conv2d(208, 64, kernel_size=(3, 3), stride=(1, 1), padding=(1, 1))
        (lrelu): LeakyReLU(negative_slope=0.2, inplace=True)
      )
      (rdb2): ResidualDenseBlock(
        (conv1): Conv2d(64, 36, kernel_size=(3, 3), stride=(1, 1), padding=(1, 1))
        (conv2): Conv2d(100, 36, kernel_size=(3, 3), stride=(1, 1), padding=(1, 1))
        (conv3): Conv2d(136, 36, kernel_size=(3, 3), stride=(1, 1), padding=(1, 1))
        (conv4): Conv2d(172, 36, kernel_size=(3, 3), stride=(1, 1), padding=(1, 1))
        (conv5): Conv2d(208, 64, kernel_size=(3, 3), stride=(1, 1), padding=(1, 1))
        (lrelu): LeakyReLU(negative_slope=0.2, inplace=True)
      )
      (rdb3): ResidualDenseBlock(
        (conv1): Conv2d(64, 36, kernel_size=(3, 3), stride=(1, 1), padding=(1, 1))
        (conv2): Conv2d(100, 36, kernel_size=(3, 3), stride=(1, 1), padding=(1, 1))
        (conv3): Conv2d(136, 36, kernel_size=(3, 3), stride=(1, 1), padding=(1, 1))
        (conv4): Conv2d(172, 36, kernel_size=(3, 3), stride=(1, 1), padding=(1, 1))
        (conv5): Conv2d(208, 64, kernel_size=(3, 3), stride=(1, 1), padding=(1, 1))
        (lrelu): LeakyReLU(negative_slope=0.2, inplace=True)
      )
    )
  )
  (conv_body): Conv2d(64, 64, kernel_size=(3, 3), stride=(1, 1), padding=(1, 1))
  (conv_up1): Conv2d(64, 64, kernel_size=(3, 3), stride=(1, 1), padding=(1, 1))
  (conv_up2): Conv2d(64, 64, kernel_size=(3, 3), stride=(1, 1), padding=(1, 1))
  (conv_hr): Conv2d(64, 64, kernel_size=(3, 3), stride=(1, 1), padding=(1, 1))
  (conv_last): Conv2d(64, 3, kernel_size=(3, 3), stride=(1, 1), padding=(1, 1))
  (lrelu): LeakyReLU(negative_slope=0.2, inplace=True)
)
2023-08-19 09:58:55,288 INFO: Use Exponential Moving Average with decay: 0.999
2023-08-19 09:58:55,491 INFO: Network [RRDBNet] is created.
2023-08-19 09:58:56,851 INFO: Loss [L1Loss] is created.
2023-08-19 09:58:56,851 INFO: Model [SRModel] is created.
2023-08-19 09:58:57,164 INFO: Start training from epoch: 0, iter: 0
…
